components/model/model.tflite (tflite, 106592 bytes, 6 tensors)

dense_2/bias f4 [12]
000000 ac 09 c0 3d 8c dd 99 bd de 34 b0 bd e1 79 d7 bd
       0.09376845 -0.0751296 -0.086038336 -0.105212934
000010 45 3d e4 bc f2 e1 15 bd bc 74 0d bd ae 73 25 be
       -0.027861247 -0.03659243 -0.034535155 -0.1615741
000020 23 ba f4 bc 64 a2 8a 3d 06 5b a2 bd 2c b8 2c 3d
       -0.029873913 0.06769255 -0.079275176 0.042167827

dense_1/bias f4 [32]
000000 12 db 0e be 69 ec 52 bd 2d e5 52 3c b0 76 41 bc
       -0.13950756 -0.05149499 0.012872023 -0.011808082
000010 dc 29 22 3e e8 3e 44 3d bf f8 1e 3e 1f 1a 23 3e
       0.1583628 0.047911555 0.15524577 0.15927933
000020 ab 42 0b 3e fe 7e 22 3c 79 03 ce 3b 7b c5 a7 3e
       0.1359965 0.009917973 0.006287035 0.32767853
000030 13 2c e2 3c 1c 71 6f 3e 44 f4 d5 3c e2 d1 85 bc
       0.027608907 0.23382992 0.026117451 -0.016335431
000040 46 3c ee 3c e1 d8 d7 3c e0 66 ac be 73 01 9a b9
       0.029081475 0.026348533 -0.33672237 -0.0002937425
000050 08 fc 68 bd d9 5e d1 bd 69 48 91 3d fc b3 ca 3d
       -0.05688098 -0.10223169 0.07093889 0.098976105
000060 ee ee 6f 3d 6b 07 ff 3c f1 2c 6d 3d 77 b1 ec bb
       0.05857747 0.031131467 0.057904188 -0.007223304
000070 11 b1 01 3e 36 f8 b6 3d e9 00 ee 3d 3e 6d bb bd
       0.12665202 0.08934061 0.11621267 -0.09151696

dense/bias f4 [160]
000000 91 ad 35 3e ce 12 37 3e a1 f3 0a 3e 75 31 90 3c
       0.17741992 0.17878267 0.135695 0.017601708
000010 54 93 8b 3d 49 18 fc 3d 99 ba 2f 3e 5e 52 4a 3b
       0.0681521 0.123093195 0.17161025 0.0030871849
000020 ae 3f f9 3d 7c f2 37 3e 93 5a b8 3d 88 a1 cb 3d
       0.12170349 0.17963594 0.09001651 0.09942919
000030 19 90 21 3e 09 70 23 3e 98 60 40 3e f4 e4 35 bc
       0.15777625 0.15960707 0.18786848 -0.01110195
000040 4a a5 19 3e 23 17 d6 3d 38 8a 1d 3d fe 22 ac 3d
       0.15004459 0.10453632 0.038461894 0.08405112
000050 cb 9e 35 3e 44 d8 06 3e e7 7c bf 3c 93 18 3e 3e
       0.17736356 0.13168436 0.023374988 0.18564062
000060 b3 53 60 3d 2e 68 e0 3b 14 77 63 3e de e7 88 3d
       0.05476732 0.0068483567 0.22213393 0.0668485
000070 75 fd 36 3c 4f c7 70 3c 26 c5 e8 3d 1c 07 ca 3d
       0.011168827 0.014695956 0.11365728 0.09864637
000080 3a 3a 83 3d 6f 7c 84 3d 08 eb ec 3d 1d 2c 42 3e
       0.0640759 0.06469046 0.11568266 0.1896214
000090 1e 28 2a 3e 11 ac 01 3e b0 39 12 3d 7a 00 0b 3e
       0.16616866 0.12663294 0.035699546 0.135744
0000a0 74 27 bd 3d b4 79 c8 3d 21 e2 a2 3d 2f 76 19 3e
       0.09236041 0.09788838 0.07953287 0.1498649
0000b0 a5 f4 a4 3d 18 49 32 3e 01 cb 5f 3d 5e e9 0c 3d
       0.08054475 0.17410696 0.05463696 0.034402244
0000c0 fc 8d f3 3d 3d 52 30 3e 65 67 23 3e 6f d1 ad 3d
       0.11892316 0.17218871 0.1595741 0.08487212
0000d0 13 ea 30 3e 51 a0 4e 3e 38 f4 1c 3d 65 f9 cd 3c
       0.17276792 0.20178343 0.038318843 0.025143335
0000e0 93 8c f2 3d 8e ea 7c 3e 76 17 b0 3c 54 bb 02 3e
       0.11843219 0.2469885 0.021495562 0.12766773
0000f0 28 3c 5e 3e 0f aa 4e 3e 3a 48 96 bc 1a 13 38 3e
       0.21702635 0.2018206 -0.018344987 0.17976037
000100 de 27 c5 3d 38 25 93 bc 6b 0f 2e 3b 47 5b 25 3e
       0.09626745 -0.017962083 0.0026559483 0.16148101
000110 1a 94 27 bd d0 ee 29 3e 78 b5 e9 3d 3f b2 b6 3d
       -0.040912725 0.16595006 0.114115655 0.089207165
000120 cb 30 11 3e 6a a6 2e 3e e9 2f 45 3e 02 82 b6 bd
       0.1417877 0.1705567 0.19256558 -0.08911516
000130 42 05 b4 bd 7e a1 13 3e ea 4e 04 3d 5e 79 85 bc
       -0.08790065 0.14417073 0.03230182 -0.016293224
000140 ab 3b d1 3c af 07 b3 3d e3 c7 4d 3d d3 25 05 3e
       0.025541147 0.087417 0.050239455 0.1300271
000150 79 07 c4 3d c8 84 c1 3d a0 26 b9 3d 3d 09 6a 3d
       0.09571738 0.09449154 0.0904057 0.057137717
000160 3b 3a 30 3d d6 fe df bc 55 58 d8 3d 54 a5 95 3d
       0.043024283 -0.027343195 0.10563723 0.073069245
000170 6d 91 52 3e 74 51 62 bd c7 c6 c7 3d 82 49 55 bd
       0.20563288 -0.05525346 0.09754711 -0.052072056
000180 f2 f7 14 3e d4 7b 35 3e 33 aa 16 3e 13 12 f4 3d
       0.14547709 0.17723018 0.14713363 0.1191751
000190 37 1e 2f 3e 57 7c b7 bc 5e 4d 16 3e d2 40 bc 3d
       0.1710137 -0.022398157 0.1467795 0.09192051
0001a0 a1 5b 8a 3e 7d 42 20 3d 01 b4 89 3d ce 4d 13 3d
       0.27023032 0.03912591 0.06723786 0.035962872
0001b0 8a 42 2d bb 5f 5c 07 3d b8 98 e7 3d 61 8f 8f 3c
       -0.0026437365 0.033047076 0.11308426 0.017524423
0001c0 41 68 0b 3e bc 72 19 bc 65 6d 08 3e 28 07 f6 3c
       0.13613988 -0.009365734 0.1332298 0.03003271
0001d0 79 63 e3 3d ed 89 5d 3e 79 cf 87 3c 1a 36 28 3c
       0.11102957 0.21634646 0.016578423 0.010266805
0001e0 73 59 87 bc 6a a6 8b 3d 72 71 4c 3e 1e 8a a2 3d
       -0.016522145 0.0681885 0.19965151 0.079365
0001f0 cf 18 d6 3d 54 12 ff 3a d6 44 73 bc 61 e3 13 bd
       0.104539506 0.0019460418 -0.014847955 -0.036105517
000200 3b 53 66 3e 72 b3 dc 3d 57 ae f0 3d 66 0a 7e 3d
       0.22492687 0.10776414 0.11752003 0.062021635
000210 bf a8 32 3e c0 4e 4e 3e f0 81 f9 bb 39 4e d8 3d
       0.17447184 0.20147228 -0.0076143667 0.10561795
000220 8c 10 2a 3d ed bd 81 3e 1e 59 0e 3e 18 6f e3 3c
       0.041519687 0.25340214 0.13901183 0.027762935
000230 51 a9 b6 3d ca e7 dd 3d 3c 62 65 bd f3 2b fd 3d
       0.08919013 0.10835226 -0.056001887 0.12361898
000240 4c 7e 55 bd b1 8a c2 3d d1 33 a4 3d c8 de 29 3e
       -0.0521224 0.094991095 0.08017696 0.1658889
000250 7a 21 8e 3d 69 fe 11 be f3 0f 35 3d e7 9a 96 3d
       0.06939979 -0.14257206 0.044204663 0.07353764
000260 cf 0f 6e 3e 1f 25 06 bd 14 0e 06 3e 49 16 01 3c
       0.23248218 -0.032750245 0.13091308 0.007878848
000270 73 af 11 3e 8c 1c f3 3a b7 d1 3b 3e 76 05 2d 3d
       0.14227085 0.0018547936 0.18341719 0.042241536

sequential/dense/MatMul f4 [160, 128]
000000 22 72 c6 bd 32 bf 25 3d fc 8f 08 be 88 39 1c bd
       -0.09689738 0.04046554 -0.13336176 -0.038140804
000010 dc 71 2d bd d0 46 14 be a7 08 a2 3b 76 f9 12 3e
       -0.042344913 -0.14480138 0.004944879 0.14352974
000020 e9 de ed bc 63 17 89 3d 44 ef 00 be a6 b5 83 3b
       -0.029036956 0.06693914 -0.12591273 0.004019457
000030 3b 76 55 3e ac bc 0e be cc 22 d2 bd 01 6b 83 bd
       0.20845883 -0.1393916 -0.10260543 -0.06416894
000040 2c 46 0a 3d 70 2a 55 3e 4d 18 bd bd 9b 8b c3 3d
       0.033758327 0.2081697 -0.09233151 0.09548112
000050 1d 8b ea bd 5c 20 6d 3e 80 7e 92 be 30 9f 99 3e
       -0.11452315 0.23156875 -0.28612137 0.30004263
000060 96 c4 02 3c 4f fe 9b 3d bc d2 02 3e 67 07 3d be
       0.00798144 0.07616865 0.12775701 -0.18459855
000070 22 09 f9 bd 53 fe 1a be 1c 1f a3 3e 4c e0 14 3e
       -0.12159945 -0.1513608 0.31859672 0.14538687
000080 95 69 3e 3e 7b 5b 12 3f 22 ab d6 be bd 60 c4 3d
       0.18594964 0.5717084 -0.4192744 0.09588764
000090 c5 f8 3b 3e 17 43 f0 bc 5f 33 25 3e bd 3e 75 3e
       0.18356617 -0.029328866 0.16132878 0.23949714
0000a0 a0 83 40 be dc ea 62 be 46 aa 0e 3e 72 d8 c9 bd
       -0.18800211 -0.22159904 0.13932142 -0.09855737
0000b0 dd 9d 42 3e 8a 49 30 be 02 70 4e be bf c3 5d 3f
       0.19005533 -0.17215553 -0.20159915 0.8662681
0000c0 36 7c 0f bd d0 4b 8c 3c c6 89 33 bd 9a d7 e4 bd
       -0.035030566 0.017125994 -0.043832563 -0.11173935
0000d0 d3 ab fe bd ab 10 c8 bd 8d 91 10 be 82 f7 a5 3c
       -0.124351166 -0.09768804 -0.14118023 0.020259622
0000e0 c8 db 89 3e 49 1b 29 3d d8 d6 98 3e 85 29 1b 3e
       0.26925492 0.041285787 0.29851413 0.15152557
0000f0 c4 73 77 3e e4 bf a1 3e 85 da a6 3d a5 6f ef be
       0.24165255 0.31591713 0.08147148 -0.46764866
000100 95 66 5b bd f8 c0 55 3e 97 51 ab 3e c1 59 2b be
       -0.053564627 0.20874393 0.33460686 -0.16733457
000110 2f 22 53 3e a0 95 b9 3e 4c 79 34 bd ad f3 a7 3e
       0.20618509 0.36246967 -0.04406099 0.32803097
000120 83 00 12 be a2 fc fc 3d e8 f7 21 be 18 27 97 3e
       -0.14258008 0.123528734 -0.15817225 0.29522014
000130 f8 8b aa bd 54 7a 88 3e 55 ed a0 3e ce 5a 11 3c
       -0.08327478 0.2665583 0.3143107 0.008871747
000140 61 a0 0d be 85 6b 87 3e 38 5b d8 3d 30 18 fb b8
       -0.13830711 0.26449218 0.105642736 -0.00011973118
000150 ba 0a 01 be dc a5 c3 3c 7e 08 e8 3e 50 1f b2 3c
       -0.12601748 0.023882799 0.4531898 0.021743447
000160 63 fb 89 3e ca 80 1c bc 56 8b 3a be ce d7 90 3e
       0.26949605 -0.00955219 -0.18217215 0.28289646
000170 c7 0f 03 be 77 9c 8f bd 39 36 54 3e d5 9f 6d 3e
       -0.12798987 -0.07012265 0.2072381 0.23205502
000180 7d 82 7c bd 4a 6e 6f bd fa de 0c 3c 18 7d 99 3e
       -0.06164788 -0.05845479 0.008598084 0.2997825
000190 70 3d 32 bc 49 57 6a be d4 ba 4d bd 87 ce 1a 3d
       -0.010878906 -0.22884859 -0.050227 0.037794616
0001a0 ad f4 a8 3e ec f9 9e 3c 70 fc 9c bd 2d 4e 36 be
       0.32999173 0.019406281 -0.07665336 -0.17803259
0001b0 a0 78 f5 bd da 8c af 3d a0 0c 09 bc ba 5c 3f 3e
       -0.11985898 0.08571787 -0.008364826 0.18687716
0001c0 29 7c 6e 3e 86 26 3c 3e 67 8f ab bd 3d b9 59 3e
       0.23289551 0.1837407 -0.08376961 0.21262069
0001d0 45 69 af bd e7 3d d1 bd 63 54 1c be 34 17 b3 3e
       -0.085650004 -0.10216885 -0.15266566 0.3497864
0001e0 9c b8 2a be 08 81 a3 bc 72 1d 53 be c2 85 ac be
       -0.16671985 -0.019958988 -0.20616701 -0.336958
0001f0 65 33 87 3e f0 4b 5e 3e c7 ab 28 3e 28 d5 53 bc
       0.26406398 0.21708655 0.16471778 -0.012929238
000200 60 14 36 3e fa e5 c2 3d d3 d2 1c 3e e9 f6 b5 3e
       0.1778121 0.09516521 0.15314798 0.3553994
000210 2c 1a 70 3e 6c 85 66 3e af 13 d0 bd 6a 60 00 be
       0.23447484 0.22511834 -0.10160004 -0.12536779
000220 b1 d5 2f 3e 18 cd 5c 3e 66 a2 53 3c 58 88 c2 3e
       0.1717136 0.21562612 0.012917137 0.37994647
000230 f0 6a 33 be 66 6e e9 3d 69 7c 34 be 45 d2 4f 3e
       -0.17521262 0.1139801 -0.17625584 0.20295055
000240 37 ad 58 3e 02 bf 0a be 91 5a 66 3e 8e d7 5d 3e
       0.21159826 -0.13549426 0.22495486 0.21664259
000250 d5 63 7b 3e 70 59 60 be 3a 52 9b 3e de 8e 92 3e
       0.24549802 -0.21909118 0.3033617 0.28624624
000260 18 2b 28 bd f3 40 0a 3e ee 95 f4 bd ee 22 4c bd
       -0.041056722 0.13501339 -0.11942659 -0.049838
000270 6a 6e 9a 3e 74 6f bd bd da 76 26 be 70 50 27 3d
       0.30162364 -0.092497736 -0.16256276 0.040848196
000280 34 37 0a be ea 01 01 be 9c a5 32 bc bc d7 c7 bb
       -0.13497621 -0.12598386 -0.010903742 -0.0060987156
000290 0a c9 43 be b1 34 de 3d 75 48 fc 3d e3 02 6e bc
       -0.19119659 0.10849894 0.123185076 -0.014527055
0002a0 22 d6 b0 3e f2 92 7f 3e bd e0 d0 bd 1e fa 1c 3e
       0.3453837 0.24958399 -0.101991154 0.15329787
0002b0 38 c4 96 3e 62 fa fb 3d 78 72 31 be 50 0c f5 3d
       0.29446578 0.12303616 -0.17328823 0.11965239
0002c0 47 13 75 bc 9e 00 10 be 48 b1 9a 3e 0f 3f ae 3e
       -0.014958209 -0.14062735 0.3021338 0.34032485
0002d0 d9 b8 a9 3e 6f 43 b0 3e f7 c8 3d 3e 52 6d 60 3e
       0.3314884 0.34426448 0.18533693 0.21916702
0002e0 bc 83 ad bc 15 2a fd bd 14 2a 4c 3e 37 b9 65 bd
       -0.02118098 -0.12361542 0.19937927 -0.056084838
0002f0 7f 99 cb 3c ee 2f cc bd 69 2a 69 3d 67 0a 49 be
       0.024853466 -0.09970079 0.05692521 -0.19632874
000300 67 91 35 3e ad b2 8c 3c 0a f3 b9 bd 66 39 0d bd
       0.17731248 0.017175043 -0.09079559 -0.034478568
000310 9d c8 f2 3c b5 52 13 3e ba 77 ae 3d 28 c4 37 be
       0.029636675 0.14387019 0.0851893 -0.17945921
000320 54 1b b4 bd ec 98 73 3d ea 92 f8 bd af 98 6c bd
       -0.08794275 0.05947201 -0.12137397 -0.057762798
000330 d4 c9 09 be 7a c8 36 be 4a d4 0f 3e 03 2f 55 3f
       -0.13455898 -0.17849913 0.14045826 0.8327486
000340 f0 2a 4f bc b3 48 bd bc e0 50 28 bd fc 2b 56 3e
       -0.012644514 -0.023105955 -0.041092753 0.20915216
000350 6e 89 8b 3e 5e 81 a1 bd 85 31 cb bd ec 1a 62 bd
       0.27253288 -0.07886003 -0.099215545 -0.055201456
000360 45 d9 1d 3e be 62 93 bd 63 35 85 bd ca d9 0c be
       0.15414913 -0.07196568 -0.06504323 -0.13754955
000370 32 d2 13 be 10 cd 40 3e 40 d1 65 bb 95 48 de bd
       -0.14435652 0.18828225 -0.003506735 -0.10853688
000380 42 95 8a 3d de 69 bc bd 5a 66 29 3e 65 ca 37 be
       0.0676675 -0.0919988 0.1654295 -0.17948301
000390 0c dd 8e bd a2 f9 0c bd 41 de bf bd f5 61 70 bd
       -0.06975755 -0.034417756 -0.093685634 -0.05868717
0003a0 5e 98 d8 3d ed ad 22 be 5a 53 43 3e 36 4e 65 3e
       0.10575937 -0.1588666 0.19074765 0.22393116
0003b0 18 90 53 3e ae 3d 92 3d 5d ec 35 3c d2 fc b7 3c
       0.20660436 0.07140671 0.011103717 0.022459421
0003c0 3e eb 19 3d a2 ae 97 3d 69 07 73 3e cb ae 38 be
       0.03757786 0.074063554 0.23733296 -0.18035428
0003d0 02 2b 42 3e ab 33 db 3d 13 58 85 3e d5 ff ba bd
       0.18961719 0.10703214 0.26043758 -0.09130827
0003e0 5e 86 78 3e c4 c2 0c 3e e8 55 82 3e f7 3a 13 3d
       0.24270007 0.13746172 0.25456166 0.035944905
0003f0 64 3a 0d 3c f7 aa 71 3d fb 03 00 be 2d fd 07 be
       0.008619878 0.059000935 -0.12501518 -0.13280173

sequential/dense_1/MatMul f4 [32, 160]
000000 8c 08 1f be f1 b1 71 be 57 20 19 bc 02 d1 31 3e
       -0.15530604 -0.23603036 -0.009346089 0.17364886
000010 a5 b0 85 3c 99 d2 e4 bd 70 68 2f bd fb 2f 0b be
       0.016319582 -0.11172981 -0.04282421 -0.13592522
000020 16 11 d4 bb 95 3e 23 be 90 17 cc bd 59 04 1f be
       -0.0064717634 -0.15941842 -0.09965432 -0.15529002
000030 4c 4e 0d be 16 9c e2 bd cd 32 e4 bd 41 a1 f8 3c
       -0.13799399 -0.11064927 -0.11142502 0.03035033
000040 3d fb 39 be a2 68 39 be 0b 15 bf bd 79 a0 04 be
       -0.18162246 -0.1810632 -0.093301855 -0.1295184
000050 31 07 f1 bd 2f de 44 be 1e 70 cb bd c9 91 4f be
       -0.1176895 -0.19225381 -0.09933494 -0.20270456
000060 f9 d6 41 be be c5 05 3e b1 7b 38 be f0 96 d1 bd
       -0.18929662 0.13063714 -0.18015935 -0.10233867
000070 c0 ff 0f be 41 71 a9 be 5e c1 5d bd 69 df 8c 3d
       -0.14062405 -0.33094218 -0.054139487 0.068785496
000080 ea 8f b6 bd ee ed 26 3e 13 ad 69 be 7b aa eb bd
       -0.08914168 0.163017 -0.22819929 -0.11507126
000090 33 98 ad 3d a9 19 c1 bd ca 69 d8 bd 40 2b ba 3d
       0.08476295 -0.094287224 -0.10567053 0.090902805
0000a0 05 81 05 be d7 7b 50 bc 64 97 4a be 39 40 58 be
       -0.13037498 -0.012724838 -0.19784313 -0.21118249
0000b0 69 b9 4e 3e 1b 6e d0 bd e0 56 60 3d b7 a5 0b 3e
       0.20187916 -0.10177251 0.05477035 0.13637434
0000c0 ae f2 d7 3d 0d 4f 62 bb 22 17 a5 3d dd ee e1 3c
       0.10544334 -0.0034531981 0.08061053 0.02757972
0000d0 77 fd 1a be 76 be 24 3e f4 ed 94 bc 42 31 c0 3c
       -0.15135752 0.1608828 -0.018179871 0.023460988
0000e0 09 2d 08 3e 2d b3 98 3c 1a 81 f2 bc 17 c9 75 be
       0.1329843 0.018640125 -0.029602576 -0.24002491
0000f0 ac 95 05 3e 3c 2f 7a 3d e0 ca fe 3c 3d 5d 49 be
       0.13045377 0.061080202 0.031102598 -0.19664474
000100 8e 83 9e bd bd 54 09 3d 8e f7 81 be 38 c9 80 bd
       -0.07739936 0.03352808 -0.25384182 -0.062883794
000110 11 da 89 bd e8 4e 30 be 7a 9b 34 bd 8c 28 fa 3d
       -0.06731046 -0.172176 -0.044093587 0.12214765
000120 1d 07 be ba e3 9e 0d bd 11 28 dc 3d b2 89 b7 3d
       -0.001449797 -0.034575354 0.107498296 0.0896181
000130 9e b0 87 be 86 ac 1e be 27 86 68 bc ac 7e ae bd
       -0.26501936 -0.154955 -0.014192141 -0.085202545
000140 ae 4d 00 3c f0 1b c7 bd b8 51 75 bc 3c 5b 73 bd
       0.00783102 -0.097221255 -0.014973097 -0.05941318
000150 a3 0a 64 bd fd 73 07 be 5d 42 80 be f1 48 a0 3d
       -0.055674206 -0.1322784 -0.2505063 0.078264125
000160 e6 4b 03 be 36 fa 50 be 3a 20 8c 3b fd 76 d5 be
       -0.12821922 -0.20407948 0.0042763026 -0.41692343
000170 8a fd bb 3d 78 48 45 be 42 3e ac bd e7 6c 6a be
       0.09179218 -0.19265926 -0.08410312 -0.22893105
000180 fc 8d 0e bd 77 fb 03 be 5c a5 fe 3d 53 c7 30 be
       -0.034803376 -0.12888895 0.124338835 -0.17263536
000190 c4 4f 7f 3e 1f b8 d9 be ad 9f 44 3e a3 4c 68 be
       0.24932772 -0.42523286 0.19201536 -0.22685485
0001a0 08 b4 7c bd 3b 93 b7 3d 6f 00 e9 3d ab 30 5d be
       -0.06169513 0.08963629 0.11377036 -0.21600597
0001b0 e5 ef 2a be d6 45 80 3e 7e 3d 32 3d 8c 7d 29 be
       -0.16693075 0.2505328 0.043515675 -0.16551799
0001c0 a8 32 ac bd 46 b1 47 be b4 de b4 bd 90 03 46 be
       -0.084080994 -0.19501218 -0.0883154 -0.19337296
0001d0 85 c7 ef bd 99 07 08 be fa 23 c4 bd f3 95 be 3d
       -0.11707977 -0.13284148 -0.095771745 0.09305944
0001e0 33 3c 5b be 2a 2e 65 be 32 ef 24 be ed ae 4f be
       -0.21409683 -0.22380891 -0.16106871 -0.20281573
0001f0 b6 98 f5 3d 6d 59 7e 3d 1f c2 a5 bd 81 ce e8 bd
       0.11992018 0.062097 -0.08093666 -0.113675125
000200 b5 9f 43 3e e7 90 49 be 3b dd 65 be bf b5 ea bd
       0.19103892 -0.19684182 -0.22447674 -0.114604466
000210 50 7d cd bc ef 8b 48 be 6f cc c8 be 80 cf 17 be
       -0.025084168 -0.1958463 -0.3921847 -0.14825249
000220 e3 ad 3c 3c fe 9a 64 be 55 2b e4 bd 78 b6 b9 be
       0.011516067 -0.2232475 -0.111410774 -0.36272025
000230 49 ff 78 3c 5a 0a 98 3d 35 bf de 3c 52 85 fb bd
       0.0151975835 0.074238494 0.027190784 -0.12281288
000240 a4 38 27 be 57 ca 35 be 2c b2 b7 be 84 1e b9 3d
       -0.163302 -0.17752968 -0.35878122 0.090390235
000250 bf 99 27 be c5 72 dc 3b 2b 50 57 bd 22 dd 30 bc
       -0.16367243 0.006727549 -0.05256669 -0.01079491
000260 b1 4d f6 bd 62 be 88 bd a9 ef e8 3c e9 de 51 be
       -0.12026537 -0.06676938 0.028434591 -0.2049519
000270 8b 66 89 3d ab fd a2 be 62 24 29 3e 8e a3 65 be
       0.06709012 -0.31834158 0.16517785 -0.22425672
000280 e4 9d 28 3e f3 0a 72 3e d8 ee 24 3e cc a7 04 bd
       0.1646648 0.2363699 0.16106737 -0.032386586
000290 93 e0 04 be 62 8a 84 be c8 9a de 3d 99 a2 aa 3e
       -0.12976293 -0.25886828 0.10869366 0.33327177
0002a0 fa 4c 21 be 15 9c 37 3e 2c 8f e4 3d 2b 07 f1 3c
       -0.1575202 0.17930634 0.1116012 0.029422363
0002b0 32 64 ad 3e a6 b6 f8 be da 4d 18 3d a2 3c 9b 3d
       0.33865505 -0.4857685 0.03718362 0.07579924
0002c0 1b c3 eb 3d b2 17 34 3d 17 f0 e1 3d 47 c2 68 be
       0.11511823 0.04396791 0.11032122 -0.22730361
0002d0 e2 2d 8d 3e 37 fa ca 3e f1 10 41 be a4 52 f9 3e
       0.27574068 0.39644024 -0.18854119 0.48695862
0002e0 13 a3 e3 bd fd 43 4f be 4a 54 d4 3e 66 9d ca bc
       -0.11115088 -0.20240779 0.41470557 -0.024733257
0002f0 d4 49 96 bd 44 8f 43 3d d0 0b bb 3e cf 29 1d be
       -0.073383 0.04774405 0.3653245 -0.1534798
000300 7d 91 58 3e 15 2c 7a bd 2a af e7 3e 22 ff cc 3e
       0.2114925 -0.061077196 0.45250827 0.400384
000310 24 a4 2c bd 82 3b aa 3e 2e 3b 0d 3d 4a 95 9f be
       -0.042148724 0.33248526 0.034480266 -0.31168586
000320 3f be 3f 3e 45 72 2a 3f a7 a5 23 3e 44 bb b1 3e
       0.18724917 0.6658061 0.1598116 0.34713185
000330 34 e6 ec 3d 3d 54 38 bd 4c 22 99 3e 1b 77 b1 3e
       0.11567345 -0.04500221 0.2990898 0.34661183
000340 ce 07 45 bd a6 7d bb 3e 06 a3 f8 3d 2d c2 08 3f
       -0.048103146 0.366193 0.12140469 0.5342129
000350 d8 af eb 3e 79 3e 26 be 58 c8 47 bd e9 88 be 3e
       0.46032596 -0.16234769 -0.048775047 0.3721383
000360 60 96 97 3e 2e 75 04 be 43 c5 89 3e a3 22 c9 be
       0.29606915 -0.12935326 0.2690831 -0.39284238
000370 90 da a6 3e dc 75 a1 bd ff f7 51 3e 97 40 fb 3d
       0.32588625 -0.07883808 0.20504759 0.12268179
000380 54 66 c6 3e 3d 63 dc bd 6e 01 1b 3d bd 67 7e be
       0.38749945 -0.10761116 0.03784316 -0.2484426
000390 13 a0 92 be ef 97 a7 3e 29 a9 9a 3e 68 89 a7 3d
       -0.28637752 0.32733104 0.30207184 0.08180505
0003a0 bb 31 a0 3c d4 f8 a1 3d 7f 22 8e be 11 09 08 3e
       0.019554963 0.07908788 -0.27760693 0.13284709
0003b0 42 24 3d bd 77 f4 77 be 41 e9 e0 bd 34 1c 1d 3e
       -0.046177156 -0.2421435 -0.1098199 0.1534279
0003c0 97 47 41 3e 9c cf 78 3e a2 12 81 3e e2 c7 57 be
       0.18874966 0.24297947 0.25209528 -0.21072343
0003d0 1d 21 1a 3e 3d af f1 3e 3b 89 df be b3 fb 0a be
       0.15051694 0.4720401 -0.43659386 -0.13572578
0003e0 46 6b 30 be d5 c5 1d bf fe cf 25 3e ef f4 16 be
       -0.17228422 -0.6162999 0.16192624 -0.14741872
0003f0 ac f0 e9 3d 1e f9 49 3e 9b 21 ea 3e 87 6c 9e be
       0.11422858 0.19723937 0.45728764 -0.30942175

sequential/dense_2/MatMul f4 [12, 32]
000000 39 05 73 bd b8 4c 40 bf 03 9e 0b be 84 3b de be
       -0.059331153 -0.75117064 -0.13634495 -0.43404782
000010 e2 78 71 3e 06 da 0e be 06 65 8f 3e 1d ff 8f 3e
       0.2358127 -0.13950357 0.28006762 0.28124323
000020 ee 4e bf 3e f6 dd 20 bd 92 c3 82 be 9c 6e ad 3e
       0.37364906 -0.03927418 -0.25539833 0.3387345
000030 96 83 26 3e 8b 54 c6 3e cf 93 f5 bd 51 44 0f bf
       0.16261134 0.38736376 -0.11991083 -0.5596362
000040 76 02 f1 be 0a 22 ba be 54 cf 30 be 5f 66 05 bd
       -0.4707219 -0.36354095 -0.1726659 -0.03256833
000050 fd 6f 21 3e 2e 16 98 be e1 02 9c 3c af a7 25 3c
       0.15765376 -0.29704422 0.019044342 0.01011078
000060 d0 78 02 3e fb ce 1e bf 58 93 50 3e 23 fa 72 bd
       0.12741399 -0.6203458 0.20368707 -0.05932058
000070 d3 f0 a2 3e df b9 de be 25 93 78 3e 6b 7c 90 3d
       0.3182436 -0.43501183 0.24274881 0.07054981
000080 86 b2 eb 3b 8a b0 f6 be 00 3f d6 3e e7 f7 eb 3e
       0.0071929125 -0.48181564 0.4184494 0.46087572
000090 2a 29 b8 3d 1f ee 70 3e 7c 32 d2 be a1 53 9a bc
       0.089922264 0.23528336 -0.41054142 -0.018838705
0000a0 fb fd bc be 84 5e 35 bf 9c 07 0c 3f 21 7f b7 bf
       -0.36912522 -0.70847344 0.5469911 -1.4335672
0000b0 b8 a7 25 bf 8b be 68 be 47 fd 0a bf f1 fb 58 3e
       -0.64709044 -0.22728936 -0.5429272 0.21189858
0000c0 8f 1c ef 3e d4 53 2c bf e4 08 1b be d9 d7 df be
       0.46701476 -0.6731541 -0.1514011 -0.43719366
0000d0 fd 51 9f 3e be 02 fa bd 14 a0 ed be 4e 04 ae be
       0.3111724 -0.12207554 -0.46411192 -0.3398766
0000e0 c4 57 3a 3e 3c 02 10 bf a3 d5 2a bf 95 4c a5 bd
       0.18197542 -0.5625341 -0.66732234 -0.080712475
0000f0 02 58 97 3e 6f 4e b0 3e 19 52 7e bf 1a c0 90 bd
       0.29559332 0.3443484 -0.9934402 -0.070678905
000100 e4 64 91 bd 80 90 f9 3e 7a c2 2a bf 3c cc 86 be
       -0.070993215 0.48743057 -0.66703 -0.26327693
000110 08 e6 38 bf 1a ab 04 bf 80 8a 66 3b b2 80 2b bf
       -0.72226 -0.5182358 0.0035177767 -0.6699325
000120 3d 7c 13 bf fc 12 b0 be 02 c1 cf be ed a3 8b bf
       -0.5761145 -0.34389484 -0.4057694 -1.0909401
000130 ff 27 01 3f fd de 86 be 8b 5c 96 3e dd 30 09 bf
       0.50451654 -0.26342002 0.2936748 -0.53590184
000140 c6 8b 2d bf ac f7 88 3e 82 d3 82 bd 9a 12 92 be
       -0.677914 0.2675146 -0.06387998 -0.28529817
000150 5d 9b 53 be 57 69 74 bb ea bc dd 3e 92 2f ca 3c
       -0.20664735 -0.0037294233 0.43308192 0.024680886
000160 3c 92 3f bf e8 d0 62 3d 13 74 f9 3e 61 9e 14 bd
       -0.7483251 0.05537501 0.4872137 -0.036283854
000170 6b c0 82 bf 83 70 eb be ed e0 06 bf 47 68 0a 3f
       -1.0214971 -0.45984277 -0.5268696 0.54065365
000180 81 a0 55 3e 11 ec 85 3e e9 04 7c 3e 47 42 50 3e
       0.20862009 0.26156667 0.24611248 0.20337783
000190 f7 92 44 bf 04 92 e7 be b7 a8 ec 3d 29 27 2c bf
       -0.7678675 -0.4522859 0.11555617 -0.67247254
0001a0 cd ff c3 bd 3f de 47 be d0 69 78 3e 44 38 94 bf
       -0.095702745 -0.19518374 0.24259114 -1.1579671
0001b0 bf 9e 14 bf b4 d8 34 bf 82 e3 9b be b4 e2 d9 3d
       -0.5805473 -0.7064316 -0.30447012 0.10638943
0001c0 36 ad be 3e cd 8c 94 be dd ef 94 3d 9b 35 91 3e
       0.37241524 -0.29013672 0.07272313 0.2836121
0001d0 85 ea 98 3e b1 c4 94 3e a4 fc 10 be a3 77 2f bf
       0.29866424 0.29056314 -0.14158875 -0.68541926
0001e0 3f 86 ce bd c6 eb 15 bf b2 cd 8b 3e 38 e3 f4 3e
       -0.10084199 -0.58562887 0.2730537 0.47829604
0001f0 20 ea b2 3e 4e f2 80 3d 65 1e 70 bf d7 e8 77 3e
       0.34944248 0.06296216 -0.9379638 0.24209915
000200 bd 88 6e bd b6 5d 06 3f dd 86 c4 3e 0f 4b fc 3e
       -0.058235873 0.5248674 0.38384143 0.49276015
000210 9e d1 8e 3e df 84 15 bf 5e 97 14 3e cd ac 8e bf
       0.278943 -0.5840587 0.14510867 -1.1146485
000220 a2 b6 db bc 8b bd 34 bf 11 e9 b4 be 05 c3 6b bf
       -0.026820485 -0.7060172 -0.35334066 -0.9209445
000230 d5 ef 03 bf 9c f1 62 be a6 7f bb be 97 6b 10 bf
       -0.5153783 -0.22162479 -0.36620826 -0.5641417
000240 76 61 14 bf d5 f0 f4 3e 18 dc de bd 47 18 34 be
       -0.57961214 0.4783999 -0.10881823 -0.17587386
000250 7e bd 80 be 92 52 8c bd 39 16 16 bf 52 11 e0 3d
       -0.2514457 -0.068516865 -0.5862766 0.109408036
000260 52 5d 39 bf 37 de f8 3e 52 8e 9e 3e 48 00 b8 be
       -0.7240802 0.48607036 0.30967957 -0.35937715
000270 4f 53 f1 be 03 9c 04 be 63 52 e2 be 3e f5 8d bb
       -0.47133872 -0.12950139 -0.4420348 -0.0043322137
000280 81 21 60 be cb b2 60 3d 52 5b fc 3d 5b 2d 0f bf
       -0.2188778 0.05485801 0.123221055 -0.5592858
000290 a6 2b d4 be b1 7c b3 3e b5 9c aa be ef 2f e0 3e
       -0.4143955 0.3505607 -0.33322683 0.4378657
0002a0 5f 56 a4 3e ff 9a 02 bf 96 00 94 3e 39 0d db bf
       0.32097146 -0.51017755 0.28906697 -1.711341
0002b0 0f c0 17 3e 86 95 29 be 8c cc eb be 4d dd e5 be
       0.14819358 -0.16560945 -0.46054494 -0.44895402
0002c0 40 7f 6b 3e d8 b5 cf bd 4a 0f ab be df 94 fb be
       0.22997761 -0.10142106 -0.33410102 -0.49137017
0002d0 25 63 6e 3c d2 a1 18 3e 9e 93 89 bf d6 b5 36 3e
       0.014550005 0.1490548 -1.0748174 0.17842802
0002e0 90 74 34 bf 43 29 46 3e c4 23 3f bf 49 7b ba 3e
       -0.7049036 0.19351678 -0.7466395 0.36422184
0002f0 cd 09 cb be 63 d5 47 3f 3b e4 b1 3e f8 ab f2 bd
       -0.39655915 0.7805998 0.3474444 -0.11849207
000300 16 23 d8 bc 94 7e fb be 55 bb 1d bf 66 e8 dd be
       -0.026383918 -0.4912001 -0.6161397 -0.43341368
000310 0e 9a 02 bf 68 1f c4 be 0e 9a 58 be b6 3c 99 be
       -0.5101632 -0.3830521 -0.21152517 -0.2992913
000320 46 5c a5 bd ee 34 e0 3e d4 3a ec 3e b6 55 e6 bf
       -0.080742404 0.43790382 0.46138632 -1.7994907
000330 38 04 8a 3c 53 25 52 3e 72 7e de bd 20 09 ee 3c
       0.016847715 0.2052205 -0.10863961 0.029057086
000340 7f a2 9e 3e 70 2b 2c be 35 fc 91 3d 98 2f b3 3e
       0.3098335 -0.16813445 0.07128183 0.3499725
000350 47 0f 08 3e be d9 6a 3e a0 e0 e9 3e 82 b6 8b be
       0.13287078 0.22934625 0.45679188 -0.2728768
000360 8f 77 99 be b6 cb 7b be 91 3a 38 bf a2 d3 97 3e
       -0.29974028 -0.24589428 -0.71964365 0.2965365
000370 76 4c 8c 3e b8 1a 79 3e 26 19 82 bf a3 3e ab be
       0.27402085 0.24326599 -1.0163925 -0.33446226
000380 07 0d 2c 3e a8 eb bd bd 6c 66 a2 3e 34 fd c3 3e
       0.16801845 -0.092734635 0.31718767 0.38279116
000390 4d 5e 7c 3c 7e 3d 13 3e d0 74 58 bf a7 5c bb bc
       0.015403342 0.14378926 -0.8455324 -0.022871329
0003a0 ff 65 19 bf fe 4f 61 3e 9c 5b ca 3e 33 7b 0b be
       -0.5992126 0.22003171 0.39523017 -0.13621216
0003b0 bf 9e 02 3e 21 06 41 bf 92 f2 51 be 94 e6 1f bf
       0.1275587 -0.75399977 -0.2050269 -0.6246121
0003c0 85 48 c0 3d 34 74 39 3e a3 0f e3 bd a2 da 00 3e
       0.09388832 0.18110734 -0.11086967 0.12583402
0003d0 d7 39 2d bf 95 93 b5 be 54 81 45 bf 8b a0 1c be
       -0.6766638 -0.3546416 -0.77150464 -0.15295617
0003e0 8d be ae 3e f3 47 5d 3e 15 b1 81 bf 5c 1e 12 3e
       0.34129754 0.21609478 -1.0132166 0.14269394
0003f0 cd 74 02 bf 5d 8b d6 bc 20 31 9e 3e 12 bc 9d be
       -0.50959474 -0.0261895 0.30896854 -0.3080755
